…
2024-04-22 13:10:52.253349: I tensorflow/core/common_runtime/gpu/gpu_device.cc:1929] Created device /job:localhost/replica:0/task:0/device:GPU:0 with 31141 MB memory:  -> device: 0, name: Tesla V100-SXM2-32GB, pci bus id: 0000:3b:00.0, compute capability: 7.0
Model: "vgg16"
_________________________________________________________________
 Layer (type)                Output Shape              Param #   
=================================================================
 input_1 (InputLayer)        [(None, 250, 250, 3)]     0         
                                                                 
 block1_conv1 (Conv2D)       (None, 250, 250, 64)      1792      
                                                                 
 block1_conv2 (Conv2D)       (None, 250, 250, 64)      36928     
                                                                 
 block1_pool (MaxPooling2D)  (None, 125, 125, 64)      0         
                                                                 
 block2_conv1 (Conv2D)       (None, 125, 125, 128)     73856     
                                                                 
 block2_conv2 (Conv2D)       (None, 125, 125, 128)     147584    
                                                                 
 block2_pool (MaxPooling2D)  (None, 62, 62, 128)       0         
                                                                 
 block3_conv1 (Conv2D)       (None, 62, 62, 256)       295168    
                                                                 
 block3_conv2 (Conv2D)       (None, 62, 62, 256)       590080    
                                                                 
 block3_conv3 (Conv2D)       (None, 62, 62, 256)       590080    
                                                                 
 block3_pool (MaxPooling2D)  (None, 31, 31, 256)       0         
                                                                 
 block4_conv1 (Conv2D)       (None, 31, 31, 512)       1180160   
                                                                 
 block4_conv2 (Conv2D)       (None, 31, 31, 512)       2359808   
                                                                 
 block4_conv3 (Conv2D)       (None, 31, 31, 512)       2359808   
                                                                 
 block4_pool (MaxPooling2D)  (None, 15, 15, 512)       0         
                                                                 
 block5_conv1 (Conv2D)       (None, 15, 15, 512)       2359808   
                                                                 
 block5_conv2 (Conv2D)       (None, 15, 15, 512)       2359808   
                                                                 
 block5_conv3 (Conv2D)       (None, 15, 15, 512)       2359808   
                                                                 
 block5_pool (MaxPooling2D)  (None, 7, 7, 512)         0         
                                                                 
=================================================================
Total params: 14714688 (56.13 MB)
Trainable params: 0 (0.00 Byte)
Non-trainable params: 14714688 (56.13 MB)
_________________________________________________________________
Model: "sequential"
_________________________________________________________________
 Layer (type)                Output Shape              Param #   
=================================================================
 vgg16 (Functional)          (None, 7, 7, 512)         14714688  
                                                                 
 flatten (Flatten)           (None, 25088)             0         
                                                                 
 dense (Dense)               (None, 256)               6422784   
                                                                 
 dropout (Dropout)           (None, 256)               0         
                                                                 
 dense_1 (Dense)             (None, 128)               32896     
                                                                 
 dropout_1 (Dropout)         (None, 128)               0         
                                                                 
 dense_2 (Dense)             (None, 6)                 774       
                                                                 
=================================================================
Total params: 21171142 (80.76 MB)
Trainable params: 6456454 (24.63 MB)
Non-trainable params: 14714688 (56.13 MB)
_________________________________________________________________
Epoch 1/50
2024-04-22 13:10:55.622043: I external/local_xla/xla/stream_executor/cuda/cuda_dnn.cc:454] Loaded cuDNN version 8905
…
